model/results/model_policy.npy (npy, 8120 bytes, 1 tensors)

array f8 [999]
0	0xc06ad9f9b8373333	-214.81173334866762
1	0xc0568ba4deb7e800	-90.1819378658256
2	0xc055708a3ca23333	-85.75843730773776
3	0xc051bbc9dcfe7333	-70.93419575546868
4	0xc052cfecff9fff9a	-75.24884024262283
5	0xc04c9c05fcd47666	-57.21893272756715
6	0xc04be99cda216333	-55.82509924535989
7	0xc051569366dbe2cd	-69.35274669144856
8	0xc0317f050d1caccd	-17.496170825482114
9	0xc04739f946206733	-46.45291973669227
10	0x4043234aa7bbe4cd	38.27571579622745
11	0xc04e0e69689f6266	-60.11259181768837
12	0xc04c253884e04333	-56.290787324431584
13	0xc04a25db37a818cd	-52.29575248439651
14	0xc050851b2fb69e00	-66.07978432496748
15	0xc04cb647eca13b33	-57.42406995651836
16	0xc05055ecb97d9a66	-65.34257352128915
17	0xc04ebc703d6d5e66	-61.47217529144545
18	0xc05136d35027b333	-68.85664752842858
19	0xc052663744fec866	-73.59712338334211
20	0xc04e9821a979359a	-61.188527282890576
21	0xc047ee8cf72b0e66	-47.863676925681645
22	0xc0535a2793998b33	-77.40866556162364
23	0xc0529a860d5eb733	-74.41443189858983
24	0xc04cdb180a1794cd	-57.71167112494877
25	0xc050e019374cd466	-67.50153906348132
26	0xc0537bc9fdc2d000	-77.93420356774004
27	0xc04d15427ea7bf33	-58.16609175863996
28	0xc0501ef2a036ff33	-64.48355870600498
29	0xc052baf4ba9e1733	-74.92118707121408
30	0xc0538904e5cd9ccd	-78.14092392997118
31	0xc054788a6c0ed4cd	-81.88344861458172
32	0xc05037f24aa456cd	-64.87416330384004
33	0xc054759bcd06a19a	-81.8376343312033
34	0xc04d62c9c9278800	-58.7717830126785
35	0xc051bfdf57536666	-70.99800665993243
36	0xc051f7520dc84933	-71.86438316878484
37	0xc054c3e872c40ccd	-83.06106251855381
38	0xc04c48ffe75ec99a	-56.57030956390663
39	0xc04eff754b10de66	-61.99576700519246
40	0xc050dc3a3d93479a	-67.44105471976073
41	0xc0524cb3eff6ef33	-73.19848250498471
42	0xc054135330ed9000	-80.30195258330787
43	0xc04afc1bcc9c1ccd	-53.96959836599999
44	0xc052a49cfeb834cd	-74.57208221424953
45	0xc053d96f098bf59a	-79.3974021784583
46	0xc0518f101c7d50cd	-70.23535835492949
47	0xc04fba49529bc333	-63.45536263089743
48	0xc0515088b34dba66	-69.25834353056561
49	0xc053d11de1498333	-79.2674487321754
50	0xc04d68241dbc0800	-58.81360217744077
51	0xc0519531e92a0acd	-70.33117131334002
52	0xc052e3e9fdea6ccd	-75.56115672963206
53	0xc041009e9a54f000	-34.004840175126446
54	0xc050b0915bab0466	-66.75887195301911
55	0xc0526f4f28621acd	-73.73920640545403
56	0xc04e8cef56d26d9a	-61.10105405115901
57	0xc04bc99e1fd30d9a	-55.575138071111
58	0xc0509622ecb48733	-66.34588163022708
59	0xc0538baf3f1fe733	-78.18257120242633
60	0xc052989a365b7333	-74.38441237383522
61	0xc04f928752cbaf33	-63.144754743056545
62	0xc04c997ae7295ccd	-57.19906320113805
63	0xc045b8c5eb12e666	-43.443539985874665
64	0xc0470d9c6586b666	-46.10633534505614
65	0xc04c58efc43758cd	-56.694817091965525
66	0xc04fe2b069bd9733	-63.771008699010416
67	0xc03b0425c9307333	-27.016201567009556
68	0xc04355a2858210cd	-38.66902226305829
69	0xc0467d98bd4dbe66	-44.98122373863298
70	0xc053074a3f84a533	-76.11390674546855
71	0xc03fc33ec9bd4800	-31.76267681952595
72	0xc04024875c0a5733	-32.28538084511674
73	0xc040d9df934d10cd	-33.70213547957392
74	0xc0363a4f98482800	-22.22777702104213
75	0xc01af052cd9f7ccd	-6.7346908691972205
76	0xc04d6bea81a9de66	-58.8430940703809
77	0xc033711cb7c20b33	-19.441844448923074
78	0xc04e2d1e0646c333	-60.35247877555084
79	0xc0331a2176edfccd	-19.10207312879793
80	0xc04479b7667ff000	-40.95090943571995
81	0xc03053d7541858cd	-16.327504402107298
82	0xc024e34bdfd99b33	-10.443938250840437
83	0xc03a06dab6540800	-26.026774783626024
84	0xc02cf5e2bf76499a	-14.480245574178117
85	0x40333eb03e5dfe66	19.2448767642476
86	0xc047f064a546ad9a	-47.878071460257345
87	0xc028f0add8c1d000	-12.470076345118287
88	0x402e377fcb5d5333	15.108396868841373
89	0x401283063bc01000	4.627953466031613
90	0xc04a0f78514c819a	-52.120859300953455
91	0x4024e957a272d19a	10.455746723667108
92	0xc026e7f6588c1800	-11.453051344968117
93	0xc040d0a59358bb33	-33.630052965474896
94	0x403f24b21b568ccd	31.143342693930027
95	0x4033784d0141b800	19.469925001663796
96	0xc03fb1eaef4c24cd	-31.694991069879325
97	0xbff8a7050faf4ccd	-1.5407763111768873
98	0xc04114fa3c5d20cd	-34.16388659045479
99	0xc03cbb738bab1800	-28.73223183562368
100	0x4026d7f21ac7ce66	11.421768986597453
101	0x402d6d385d42e99a	14.713320650499373
102	0x405020af9dd9dccd	64.51071878696094
103	0x404a1540250de6cd	52.166020042217134
104	0xc0238f43eb499000	-9.779815056543157
105	0x402ec5d4a0546000	15.38638783483475
106	0x403ccb89407c60cd	28.795063047757868
107	0x403b3bdac60ca266	27.23380697067696
108	0x404469387d655acd	40.82203643273315
109	0x402100140f9ef666	8.50015305343113
110	0x403f6725fff23e66	31.402923580781497
111	0x40240670a610499a	10.012578191269132
112	0x403af4bfa933bf33	26.956049513944162
113	0x403439ba82b98ccd	20.225502176571172
114	0x4012b2c88db85333	4.67459317624598
115	0x404bba90982b3e66	55.45753767119895
116	0xc03257b8880be59a	-18.342659476189148
117	0x4047685bf9dfb6cd	46.81530688689745
118	0x4046fb287c61d0cd	45.962173030625856
119	0x40474747c9bf4066	46.55687829817252
120	0x404e0d45ee34be66	60.10369660926226
121	0xc011ca5cddbee666	-4.4476198814169035
122	0x40578c292533ad33	94.19001131102122
123	0xc005199c888bb99a	-2.637505594982213
124	0x40555e314196e400	85.47175636039174
125	0x404262680eeee4cd	36.768800608298626
126	0x40465a5c8460959a	44.70594839778933
127	0x40317fa9766738cd	17.498679542732862
128	0x4041eb355c293d33	35.8375659180987
129	0x4049512c4b220ecd	50.63416422999362
130	0x4050d444fc326466	67.31671051903831
131	0x4010bf1d78471666	4.186635855997883
132	0x404ea5af19d79066	61.29440615678395
133	0xc0297f9b9712f19a	-12.749233933508368
134	0x405040b404c9cb33	65.01098746973439
135	0x404bca65f02ea133	55.581235907333756
136	0x40425f5ce88718cd	36.74502283665206
137	0x4003e8f7e0fd199a	2.488754041408538
138	0x4040f9a43823aecd	33.95032407514882
139	0x404c0d68edd4f600	56.10476467989429
140	0x404e254fdfbe039a	60.29150006082564
141	0x403fc1ed3c158266	31.75752616429454
142	0x4043b66a279f5c00	39.425114586651034
143	0x405313fa5469569a	76.31215391432707
144	0xc00031e6f8264000	-2.0243663202927564
145	0x403c1a4564cd9333	28.10262136477395
146	0x403595d95be6d266	21.58534788499164
147	0x405090ebe72e759a	66.26439837967919
148	0x4053c8c6eb575633	79.13714107064224
149	0x40458d9939ffd466	43.10623860351261
150	0x4040ab8b871480cd	33.34019554616098
151	0x404a6d5f707ac733	52.85447507853532
152	0x405013d85db66e66	64.31008093658019
153	0x404c02c4b11e779a	56.02162755954414
154	0x40441927b48f9e66	40.19652421009668
155	0x404d6a22ec35c200	58.829190756081516
156	0x4052209a645c8400	72.5094233420823
157	0x40529936fd57f6cd	74.39398130026093
158	0x403fdd310a126000	31.864029530988773
159	0x405055b20f6f7500	65.33899293789364
160	0x403b0319e6e054cd	27.01211398102605
161	0x3ffef18e67b8c000	1.9339736987712968
162	0x4031d17b2c263c00	17.81828571256119
163	0xbfe5801a4f8db333	-0.6718875459460832
164	0x4055e4bff5240033	87.57421616092397
165	0x4050f1ee81702a66	67.78018222764658
166	0x404529f1454e4533	42.32767549821656
167	0x404e3dd3ee2e0c00	60.483030102237535
168	0x40439edd7fd24533	39.24113462226014
169	0x4040ec97f8718ecd	33.84838777108016
170	0x404797a626803acd	47.184758007633356
171	0x405582602c435200	86.03711992811441
172	0x404ac0d58792fc00	53.50651640583965
173	0x40450d39790fd59a	42.10331643365062
174	0xc027bfd1b0ed04cd	-11.874646691258386
175	0x40439d20d62da133	39.22756459453594
176	0x4044700babb884cd	40.87535616407113
177	0x404dbe252e0be666	59.48550963955931
178	0x403e8cf5ec34e000	30.5506274823274
179	0x404788e90c49f0cd	47.06961206064589
180	0x403449dd9c93b666	20.288537775099392
181	0x403b0bd6ffdae59a	27.046249381009694
182	0x403ba2c0c9c0bd9a	27.635754212909525
183	0x402be7e829a4f4cd	13.952943135629903
184	0x404fda195b2b3466	63.70389880761722
185	0x403d25803871dccd	29.146487739370787
186	0x40295006064fa333	12.656295964452147
187	0x40422cfa2c334f33	36.35138466363278
188	0x4053c56ee78a01cd	79.08489407040834
189	0x3fc61ec7144a0000	0.17281425944020157
190	0x40451926dd6f10cd	42.196498564940704
191	0x404bc104c814a533	55.50795842178413
192	0x4049c0508beb499a	51.50245808590553
193	0x403d95dee55acc00	29.585432371775823
194	0x4051968bc5fad066	70.35228108876763
195	0x403bae7bcdc7b400	27.681576596503874
196	0x40455c1cd25e3000	42.71962956999778
197	0x4035476536fdfe66	21.278888165483657
198	0x404f8dd832786400	63.10816031340073
199	0x4050636fa4cb00cd	65.55368919205212
200	0x403133f8bd4c70cd	17.203014212763083
201	0x40348710c6efaccd	20.52759974814835
202	0x402611cd6857d19a	11.034770260543883
203	0x404ec08bd1493c66	61.50426689220403
204	0x402d9820d557519a	14.79712549868491
205	0x40461fc83438a0cd	44.248297240877584
206	0x40316312e33d799a	17.387006952770754
207	0x4040ea9733a06666	33.83273930866271
208	0x404524d360a70acd	42.28770073086125
209	0xc02707e38c1d7333	-11.515407923312159
210	0x403454595a42e59a	20.329488412220236
211	0x3ff6f3b87f514ccd	1.4345021222441574
212	0x4042d0bb56d5c666	37.630717138655015
213	0x404f243c0bd60d9a	62.28308246566594
214	0xc00720aa32d1c666	-2.890949627901864
215	0x403df3278e271400	29.94982231573158
216	0x4039ff895c740333	25.998189714740146
217	0x4044d4d0f317879a	41.66262663506423
218	0x4037859ef56ca19a	23.52195676710253
219	0x4045fa9457fa8acd	43.95765208943849
220	0x404371728676e200	38.88630753331017
221	0x404b745e883e98cd	54.90913489395607
222	0x4035827825620e66	21.509645782889855
223	0x40457ee826f9419a	42.99145972414699
224	0x40504e0400a78000	65.21899429662153
225	0x40446d3468fe7e66	40.8531619303365
226	0x404efa802ceb7733	61.957036604855965
227	0xc00189b4fea26000	-2.1922397511771123
228	0x4040fc986e4bf19a	33.97340182026092
229	0xbff2676891496666	-1.15024620773911
230	0x40315b676e3fd800	17.357046976649144
231	0x4040af5d33298466	33.370031733772336
232	0x401feec3557f199a	7.983167014963692
233	0x4031426d4eaac666	17.259480396931757
234	0x402a156ec5c97000	13.04186075290636
235	0x404f94b2edb9ee66	63.161710468088856
236	0x404c0a182494a39a	56.078861782624884
237	0x4040a28d62ce2a00	33.269939757028624
238	0x4044f47bc492d79a	41.91002709550885
239	0x405004ff887ab133	64.07809650403651
240	0x404615a783131f9a	44.16917456086885
241	0x404042e0016ef19a	32.5224611083715
242	0x403f839653263f33	31.514012524449935
243	0x4040526650b30e66	32.643747413091475
244	0x401e62b7f48c8000	7.596404858661117
245	0x40474094f69e4a00	46.50454600075682
246	0x40396c6437549266	25.423404176852635
247	0xc010f2d1ab16c99a	-4.237127946153487
248	0x4052d33a17858c66	75.30042064706649
249	0x4007101dd255a666	2.88286938022502
250	0x40472f592cc67a00	46.36990890208472
251	0x405000e064d71100	64.01369591715411
252	0x4045baaceab84866	43.458402004224624
253	0x4024e2a4e523899a	10.442664299572062
254	0x4054aecd00e5d59a	82.7312624210812
255	0x404ed840c7dc0a00	61.689476950112294
